example_models/actor.pth (torch, 542751 bytes, 6 tensors)

fc1.weight f4 [400, 33]
00000000: cdd7 cdbe 6a85 043e 2f8e a6bd d370 9c3f
00000010: 7b41 a43f f3ac e53e 294e 6abf d600 f43d
00000020: d220 67bf f55d 923e bc68 ca3c 9be0 973e
00000030: a768 90bd 630d bb3e 01e9 6d3e 72e3 913e
00000040: aee2 1dc0 81d8 36bf e2bf bbbf 71ec 623f
00000050: dc37 2dbe 9abe 2ebe 37eb 0abe f67f bc3e
00000060: d011 a33c 70a0 a43d ccfe 39bd d857 4c3f
00000070: 5a72 2a3e c965 4b3d 6548 4dbf b74f eabc
00000080: db97 bcbf a81b 0d3f bff6 82be 8d5c 7abe
00000090: 90e7 853e 76e8 413f ca66 993f 3062 8cbe
000000a0: 8a4c a2be ec2d 6c3e d566 f63e ee21 663d
000000b0: 1d2f ec3d f814 97bd 8bb5 7cbe 9b7a 843d
000000c0: ebd9 aa3e bd56 d0bf 5b43 b73f d516 19bf
000000d0: 962c d9bf fc8d 31bb 3c72 c6bd 12ee 0dbe
000000e0: 5db4 85bd 5ec3 46be 55df 033e c67a 29be
000000f0: df66 293f f895 97bc c3af 28bd efe6 1ebf
00000100: ec03 3bbc 21cc e13f cf5f 29be 7465 f93e
00000110: 9776 f7bc 9a48 2c3f 9388 94bf 576e edbf
00000120: 1b89 7c3f c213 1ebd b7a8 03bf a133 b2bd
00000130: aeb3 423d 4415 833c 30f0 f6bc 7170 0e3c
00000140: e3e9 a6bd 40f4 db3d 0abd 803f 2f50 5d3f
00000150: e496 1abf 0369 03c0 d535 86bd 6d41 6d3c
00000160: 45b3 493e fa3b 42be cc10 fbbd f5be 453d
00000170: 9414 1e3f 1d10 9b3f 2d4f cebd ecd4 0bbd
00000180: 4bef a2bf 2bb2 3c3d 7862 24c0 57bb 6a3e
00000190: 6f53 9fbd ec83 5d3f b266 5c3e a54d 9d3f
000001a0: 3979 1ac0 58f9 c3be 5601 82be 48a7 cdbe
000001b0: 628c 313e f492 ca3d 2be3 02bd 8c27 b13d
000001c0: 84d0 82bd 1191 2a3e 3928 cf3c 297a 353c
000001d0: 627b 3abf 1239 f0be 4d97 d73e f255 a6bc
000001e0: 9a78 1abd 6d7f c2bd 0a67 88be 33aa 17bd
000001f0: 9a72 0bbe 7a7d 75be 1ebe 093f 1cd6 ebbe
00000200: 0058 54b8 c8af 13bf 8003 08ba 9f4f bf3c
00000210: 7a1a b13e 065f 333f bf44 9d3e b3bd febd
00000220: 79fd 5cbf bfa1 5ebe 445c 373f 7231 81bd
00000230: f76d 523f dd25 da3d 2ff4 1bbd 937b 8d3e
00000240: 4100 1ebe c08c e5be cbd9 d6be 7415 1bbd
00000250: fdc1 1c40 e6b8 04bf c1e3 253f 8965 1c3f
00000260: 2678 1fbe a461 aa3d b059 313d 9286 84be
00000270: cfe9 39be f566 183e 3eb9 03be bfdb 823f
00000280: 134e 28be e080 1bbd 6f1d 86bf 68c4 19bc
00000290: 88e5 773e 1815 1f3f 1d18 ea3d f22f 3bbe
000002a0: 006f 343f 9955 993e 9641 c4bf 356b acbe
000002b0: 7e27 48bc d05b c3bd 5ebd d0bd a767 3dbd
000002c0: ae58 03be 5a88 d03c 44a6 09bf 0733 ce3c
000002d0: 2d0f 9a3e dcb3 48bf db19 303f 73df e3bf
000002e0: cfbb 82bf 8cc7 8f3d f2d2 f7bd fb0f 1ebd
000002f0: 6569 c8bd adfb 073c 4ccf f93c 5e97 d1bd
00000300: 8646 c83e a2c0 e1be 8927 403d 97db b0be
00000310: c03e 713a e25e d13f 372d 00be f87c 4b3e
00000320: 065f c1bd 597b 60be 1d1b ea3f 9151 a63d
00000330: 3ba7 a93f 37b0 8b3d 09eb 853e 8d64 713e
00000340: 1d10 343c 4bed ec3d 416a 8abd 6621 423d
00000350: 2461 013e 48b1 163e c99a 493d d485 0d3e
00000360: 1620 ebbe 2b92 1dbe 7674 a93d 1461 143d
00000370: a023 88bd 83cc a73d 3970 36bc 98de 2b3d
00000380: 6cbe acbe 9eb1 bf3e 3f05 b73d 7f70 2fbd
00000390: 2f63 cabe ace8 2c3c b76f 9ac0 a0df 34be
000003a0: 15c0 9d3e be7f 3dbe 1b34 85bf 2d4f bc3f
000003b0: 9072 5e3f 8ae1 25bf ba3d bb3d d8f8 173d
000003c0: 1bcc ec3c 2f76 5cbd 85cc b83d ecb3 f83c
000003d0: 6ff9 06be bf80 5fbe 3a87 b53e e1f5 083f
000003e0: 8c28 5fbe 0e01 153e be05 263f d8e9 143e
000003f0: 9439 943d f86c 293e 8341 7cbe ed61 423c
-0.40203705 0.12941518 -0.08132588 1.2221931 1.2832483 0.44858512 -0.9152551 0.11914222
-0.90284455 0.2858731 0.024708144 0.29663548 -0.07051211 0.3653365 0.23233415 0.2849384
-2.4669604 -0.7142411 -1.4667933 0.8864203 -0.1691584 -0.17064896 -0.1356629 0.36816376
0.019905955 0.080384135 -0.04540901 0.7982154 0.16645184 0.049657617 -0.8018859 -0.028602464
-1.4733843 0.55120325 -0.25578877 -0.24449368 0.2615323 0.7574533 1.1984494 -0.2741866
-0.3169902 0.23064393 0.4812533 0.0561847 0.11532424 -0.07377046 -0.24678628 0.06468698
0.33369383 -1.627647 1.431743 -0.59800464 -1.6966732 -0.0027092686 -0.09689757 -0.13860348
-0.06528542 -0.19410464 0.12878163 -0.1655074 0.66172594 -0.018504128 -0.041183244 -0.62071127
-0.011414509 1.764042 -0.16540454 0.48710215 -0.030207915 0.6729828 -1.1604179 -1.8549298
0.98646706 -0.03859306 -0.51429313 -0.08701254 0.047534637 0.016001351 -0.030143827 0.0086938
-0.08150079 0.10739946 1.005769 0.86450475 -0.6038649 -2.0532844 -0.065532364 0.014480931
0.19697292 -0.18968192 -0.12259063 0.048277814 0.6175015 1.2114292 -0.10073695 -0.034138605
-1.2729276 0.04606835 -2.56851 0.22923027 -0.077795856 0.8652942 0.2152355 1.228932
-2.4136488 -0.38276172 -0.25391644 -0.40166688 0.17338708 0.0989131 -0.031954926 0.08650121
-0.063874274 0.16656901 0.025287734 0.0110764885 -0.7284452 -0.4691854 0.4210762 -0.020304654
-0.03771267 -0.09496961 -0.26641113 -0.03702755 -0.13617936 -0.23973647 0.5380572 -0.4606179
-5.0626695e-05 -0.57690096 -0.000518851 0.023353396 0.34590513 0.7006687 0.30716512 -0.12438526
-0.8632427 -0.21741389 0.7162516 -0.06308259 0.82199043 0.10651753 -0.03807467 0.27633342
-0.15429784 -0.44833946 -0.41963038 -0.037862256 2.44934 -0.5184463 0.6480065 0.6109243
-0.15573177 0.08319405 0.043298423 -0.2588392 -0.18155597 0.14883025 -0.12863633 1.0223311
-0.16436033 -0.0379647 -1.0477732 -0.009385206 0.24208653 0.6214156 0.114303805 -0.18280008
0.7048187 0.29948118 -1.5332515 -0.33675542 -0.012216447 -0.09538996 -0.10192369 -0.04624143
-0.12826797 0.025455642 -0.53769326 0.025170816 0.30089703 -0.78399444 0.6878945 -1.7802566
-1.0213565 0.070204824 -0.121007815 -0.03858946 -0.097857274 0.00829975 0.030494355 -0.10233949
0.39116305 -0.4409228 0.046912704 -0.34542534 0.0009202771 1.6357081 -0.12517248 0.1987189
-0.094419524 -0.21922053 1.8289524 0.08121026 1.325416 0.0682072 0.2615588 0.23573513
0.01099017 0.115686975 -0.067585476 0.047395132 0.12634712 0.14716065 0.04921988 0.13820583
-0.45922917 -0.1538779 0.08274166 0.036225393 -0.0664742 0.081933044 -0.011135154 0.04196033
-0.3373903 0.374402 0.089365475 -0.042831894 -0.39528796 0.01055352 -4.826137 -0.17663431
0.3081061 -0.18505761 -1.0406526 1.4711663 0.8689356 -0.6479727 0.09142633 0.03710255
0.028905919 -0.053823646 0.09023384 0.030359231 -0.13181089 -0.21826456 0.35454732 0.5350018
-0.21792811 0.14551184 0.6485251 0.1454233 0.07237545 0.16545475 -0.24634366 0.011864168

fc1.bias f4 [400]
00000000: 4aaf 65bf 545a 36bf 5fc3 89bf d0cb 08bf
00000010: e11a 94bf 714c 06bf 4a06 00bf 8c52 75bf
00000020: 637b 5dbf b99e 6dbf f55e 91be 4b96 97bf
00000030: 74c3 fdbe 5c46 febe b24e c2bd 4d9d 82bf
00000040: c826 9dbf 733c 84bf 760d 8abe 7a0c 29bf
00000050: dd01 34be eee7 09bf f401 4fbf 3d2d 86bf
00000060: 9768 24bf 7ac4 34bf 406d 56be 1b18 32bf
00000070: a0f7 50bf 16b0 40bf be19 35bf 9726 1ebf
00000080: b446 87bf ebf6 2fbf 5c50 47bf 9b44 d0be
00000090: 1909 59bf a4f0 1abf 2383 0dbf 3819 24bf
000000a0: f133 20bf cd37 2cbf ddde 0bbf 6558 07bf
000000b0: 80f1 7abf 8801 2bbf b9c5 93bf 8674 48bf
000000c0: fa06 c3be 82de 6cbf a116 38bf 8a9c 65bf
000000d0: 8ffc 0bbf 2942 7cbf 3ec9 72bf 9afd 29bf
000000e0: 3327 5dbf 3e09 c0be 7e06 58be d927 973e
000000f0: 8958 fabe 624a 75bf dbc6 03bf 8beb 8dbf
00000100: ba91 76bf e271 6fbf 89f1 f1be 6715 46bf
00000110: 9791 71bf 94d5 9fbe ed7a 68bf bf4d 3bbf
00000120: cbd1 1abe c03d 1ebf 0ea4 1bbe 60c4 c4be
00000130: 2459 68bf 6d78 c8be ace4 3cbf 8aba 34bf
00000140: 8eaa 92bf c11b 7abf 11d4 a4be 00da d0bd
00000150: adeb 43bf b78a 3bbf eb5b 81bf 3996 43bf
00000160: d459 7abf b9b9 98bf 230b 47bf 3e15 cebe
00000170: 8c70 4ebf bbbe b5bf 44f3 71bf 5e8b 5bbf
00000180: 7737 09bf 798f 7fbf c50b f23c 9938 04bf
00000190: 7d24 adbf 816c 10bf 5206 48bf 75f7 39bf
000001a0: d8ea 33bf d49b 28bf cdcf e2be 7af2 8fbf
000001b0: 46aa 21bf b1e7 67bf 59a6 1abf 92ae 19bf
000001c0: d132 47bf 0b08 3dbe 97f2 dbbd fd3a adbf
000001d0: 1e64 6abe 9d7f 1cbf 920a 6fbf 66d1 1ebf
000001e0: 72e4 acbf a014 5abe 37cd 5abf 0607 58bf
000001f0: 2b67 4dbf 757b 26bf c64f 22bf 719b a7be
00000200: 1502 58bf 4aa0 dcbe 2016 52bf a2f6 e4be
00000210: 5624 c9be cb1b 62bf 5ba6 88bf 352c 5bbf
00000220: 973a 1ebf 9f98 3abf 99ec 16bf dbe2 c1be
00000230: 2297 11bf 734a 01bf fea1 e8be 90bb 6dbf
00000240: b3f8 93bf 2232 85bf 3377 24bf 9524 3cbf
00000250: 2d45 70bf 19a4 68bf 219c cbbf 37db 81bf
00000260: 3cb0 2ebf 9d4a 3abf e138 3ebf a165 51bf
00000270: c844 e2bd 5b0a 3cbf 2be1 24bf 816f bbbe
00000280: 43de 2fbf 3e35 edbd d376 63bf 2380 5fbf
00000290: c406 20bf a04a 5dbf e525 2ebf 2338 29bf
000002a0: 8bea 54bf f4ed 77bf 573f 75bf 3306 abbf
000002b0: 5be8 9dbe 6b3f 33bf 45be febe 215a 3abf
000002c0: e933 76bf b573 b7bf fb27 87bf 304b 82bf
000002d0: 4cfd 2cbf da7b 78bf 351f 74bf ff49 a2bf
000002e0: ede6 96bf 0f4c 8cbf a7c2 70bf ae26 84bf
000002f0: fef7 1dbf 15e2 31be 4408 a1bf f072 aebf
00000300: f7cc 40bf 50a6 53bf 8d3c 43bf 822b 78bf
00000310: 3a6a a73d b590 95bf 7989 27bf e41f 8fbf
00000320: 44e1 483e fda3 8fbf ae06 52bf 235a 97bf
00000330: f3e0 47bf c4e9 29bf 8428 9cbf 8e7e c83d
00000340: 4804 6abf ebd8 07bf 893c 64bf d8a7 23bf
00000350: 608d 13bf e98b 38bf d8fc 99be eee8 90be
00000360: a46e 7abf 304c 55bf db8a 5dbf ef53 55bf
00000370: 282c 43bf 70a0 76bf ae5f 26bf 5a11 38bf
00000380: 73a3 26bf 20d4 cdbe 842d d7be f8de 8ebf
00000390: 9fdc 27bf 2256 3cbf 8fe7 edbe 0495 66bf
000003a0: 1fa6 74bf 2fe3 33bf ab14 3dbf f9d7 39bf
000003b0: 6663 3bbf a4da 62bf 54cb 61bf 76d7 6bbf
000003c0: b3ba 49bf c419 68bf 9100 5bbf 8224 6fbf
000003d0: 9946 21bf fc27 30bf d881 39bf e4a9 b9be
000003e0: 48b4 74bf 88ce 8fbf 665e 933e c9e2 26bf
000003f0: 70e0 8cbf 4e4f 3fbf aa6b bbbf be5c 363e
-0.89720595 -0.7123158 -1.0762748 -0.53435993 -1.1570703 -0.5246039 -0.50009596 -0.9582908
-0.865164 -0.92820317 -0.2839276 -1.1842741 -0.4956318 -0.49663055 -0.09487666 -1.0204254
-1.227746 -1.0330948 -0.26963395 -0.6603466 -0.17578836 -0.5386952 -0.80862355 -1.0482556
-0.6422209 -0.706123 -0.20940113 -0.6956803 -0.81627846 -0.75268686 -0.70742404 -0.61777633
-1.0568452 -0.6873614 -0.77856994 -0.40677342 -0.84779507 -0.6052344 -0.55278224 -0.6410098
-0.62579256 -0.67272645 -0.5463694 -0.52869254 -0.9802475 -0.6679921 -1.1544715 -0.783028
-0.3809126 -0.9252702 -0.7190953 -0.89691985 -0.5468225 -0.9853845 -0.9483832 -0.6640259
-0.8638794 -0.3750705 -0.21096227 0.2952259 -0.48895672 -0.95816624 -0.51475304 -1.1087507
-0.9631611 -0.93533146 -0.4725459 -0.7737641 -0.9436278 -0.31217635 -0.9081257 -0.73165506
-0.15119092 -0.61812973 -0.151993 -0.38431072 -0.9076102 -0.39154378 -0.73786426 -0.70597136
-1.1458299 -0.976986 -0.32193044 -0.1019783 -0.7653149 -0.7325854 -1.0106176 -0.76401097
-0.97793317 -1.1931678 -0.7775137 -0.40250582 -0.8064048 -1.4198831 -0.9451182 -0.8575953
-0.5360026 -0.99828297 0.029546628 -0.5164886 -1.352676 -0.56415564 -0.78134644 -0.72643214
-0.7028022 -0.65862775 -0.44299164 -1.1245873 -0.6315044 -0.9058791 -0.60410076 -0.60032
-0.77811915 -0.184601 -0.1073963 -1.3533627 -0.22889754 -0.6113222 -0.93375504 -0.62038267
-1.3507216 -0.2129693 -0.85469383 -0.84385717 -0.80235547 -0.6503213 -0.63402975 -0.3273578
-0.84378177 -0.4309104 -0.8206501 -0.44719416 -0.39285535 -0.8832366 -1.0675768 -0.8561433
-0.6180815 -0.7288913 -0.5895477 -0.3786839 -0.56871235 -0.50504225 -0.4543609 -0.9286432
-1.1560272 -1.0405924 -0.64244384 -0.7349332 -0.93855554 -0.90875393 -1.5907022 -1.0145024
-0.6823766 -0.727701 -0.7430554 -0.817957 -0.11048275 -0.734533 -0.6440608 -0.36608508
-0.6869852 -0.11582421 -0.88853186 -0.87304896 -0.62510324 -0.86441994 -0.6802657 -0.6610128
-0.83170384 -0.9684746 -0.95799774 -1.3361267 -0.30841336 -0.70018643 -0.4975454 -0.72793776
-0.9617296 -1.4332186 -1.0559076 -1.0179195 -0.67574 -0.9706398 -0.9536012 -1.2678832
-1.1789223 -1.0960711 -0.94047016 -1.0324304 -0.6170653 -0.173714 -1.2580647 -1.3628826
-0.7531275 -0.8267565 -0.7626427 -0.9694139 0.08174558 -1.1684786 -0.6544414 -1.1181607
0.19617182 -1.122192 -0.8204144 -1.1824383 -0.7807762 -0.66372323 -1.2199864 0.097897634
-0.9141278 -0.53065366 -0.8915487 -0.63927984 -0.57637596 -0.72088486 -0.30075717 -0.2830271
-0.97825074 -0.8331938 -0.8654 -0.833312 -0.7623925 -0.9633856 -0.64989746 -0.71901476
-0.65093154 -0.402009 -0.42026913 -1.1161795 -0.65571016 -0.7356893 -0.46465728 -0.9007113
-0.9556598 -0.7026853 -0.7385966 -0.72595173 -0.73198545 -0.8861487 -0.8820088 -0.9212564
-0.78800505 -0.90664315 -0.8554774 -0.9341508 -0.6299835 -0.6881101 -0.7246375 -0.3626243
-0.9558759 -1.1234903 0.28782958 -0.65189797 -1.1005993 -0.74730384 -1.4642231 0.17808816

fc2.weight f4 [300, 400]
00000000: 0689 3fbe 8c9d 6cbf 122f 033e ac5e cbbe
00000010: 4d37 e5be 8a70 02bf 82f0 133e 36c2 383e
00000020: 7b1e f83e ac42 893e 919f 33be 7281 2fbf
00000030: ea57 403f 1b55 0e3e a0a5 ee3e 694f dfbe
00000040: 0543 f8bc 15e2 e63d 30d9 85bc c70b 393f
00000050: 2596 41bd af29 683e 7c82 983f 246e 5cbf
00000060: f157 aebe 3df1 003f 213a 87be a704 02bf
00000070: 4c6f 343f 7d51 06bf 890c 043f 1668 9ebe
00000080: 7c2a e9be 0e69 d23e bcab 82bf 9d9b 493e
00000090: c0ae 2d3c 2f37 94bf 910c 8c3e ef4c 793e
000000a0: 9227 523f cee6 a3bf fdbd 183c 6104 2abe
000000b0: e081 813f 7f98 efbe e984 cc3e 55d6 e3be
000000c0: a2bc 8ebc 135d 05be 9989 923e d88e bdbe
000000d0: bc5f c9be 6867 5ebe a0e7 343f c6f9 27bd
000000e0: 0074 64bf 6e79 89be 79bc a5be 30a6 8cbc
000000f0: ac7e b53d cf76 5d3e 1549 a13e 27ab 47bf
00000100: 46c0 b8be 2c63 883e 9e96 abbe 0434 7abf
00000110: d51b 5cbe 6bf1 07bf 6063 2fbf 4226 173e
00000120: 9b83 8c3e 67ed a1bf 4186 863e 2125 6b3e
00000130: 343d ae3e 4de0 483e d534 453e c051 1e3f
00000140: 1cad e7be 7681 71bf 2a0c 8f3e c961 52be
00000150: a13b 34be 5859 e83e 5503 10be ebea e53e
00000160: ee99 763e eea5 d63d d6c1 f43e 740f 423f
00000170: a674 4dbf b123 62bf fcbb c6be cae9 483e
00000180: ed0b e0bd 5149 c03f 5d8d 7abe aa04 d23d
00000190: c915 5bbf 2e35 373f c2a0 16be 4551 053f
000001a0: 34a7 ecbe 72d6 b3be 0c21 c23c 6210 893e
000001b0: 3055 d4bd 56e6 3a3c 68d9 cfbb 946d 48bd
000001c0: 5153 0cbf 3d51 0d3c 5314 a5bd 038f 2dbf
000001d0: 4b39 173f f241 a73e ef1e 5e3d 335b 39bf
000001e0: 7022 553f 5fc5 943e ece3 933d dff5 e83e
000001f0: f876 5b3e d100 513f 6e02 b2be 74ea e3be
00000200: 26b6 12bf b90d 563f efad 12bf 6a34 fcbe
00000210: d52d a4be fd23 0c3f f368 3cbf c2d6 12bf
00000220: 0490 8b3e ca31 0abb c7ce 893c 17ab 7fbe
00000230: e006 f9be 3d4c 953e 5352 fa3a 3575 8ebe
00000240: 6cc5 283f 8331 4f3d ca7b eebd 8e3f fcbe
00000250: 9d4d 4d3f c9db 36be 2690 d4be 7202 ef3e
00000260: 68bd 663e 8858 183f 39f8 073e 80bf 9ebe
00000270: 5e96 2f3f 90b3 35bf 425a e1bc 7e04 0fbd
00000280: 0a63 9abe 126d 57bf 2703 603c ec8a 63bf
00000290: 8ee7 b0be 6d14 883f 1057 b23e a852 953e
000002a0: e59b 313e 19e9 efbd 88ed 2e3f c9d1 72bf
000002b0: 0e59 e03e 0de4 083e 99f5 903d f557 503f
000002c0: e0ab 033f 0ff0 983e c88b d0bd 9af4 103f
000002d0: b3c7 893f 33fc ecbd d7c6 16bf 47cd 06bf
000002e0: 272a 1dbe 9fa1 0d3f 6d8f 83bf 508b 03bd
000002f0: 6be6 bbbd de3b 603e 3631 d03f f8b1 bf3e
00000300: a11f 65bf 1100 08be 8970 02be 9618 bbbf
00000310: cbfc 83be 0238 eabe 3d14 d8bd f05d 89bc
00000320: 7692 f0be 1976 2a3e 18af cabe ee06 1dbf
00000330: 67b3 25be 7ea1 13bf 2f8e a93d 91da b6be
00000340: d962 debd b9e0 163f 3a9c b53e 97c3 a53d
00000350: a071 fdbe 6aa7 773e b6d1 323e 3732 0abf
00000360: 5c2d 0d3f 206a db3d c2f9 8f3e e2c3 08c0
00000370: b27f 74bd f094 e7be f670 60bf a56f 81be
00000380: fc80 2f3f 41ea de3d a1bd e03d 6567 c0be
00000390: 0efa 63bf 8877 32bf e0ce 29be 4460 8abf
000003a0: b739 e0be d8fe 0bbf 1c96 a13e 3965 c2be
000003b0: dde2 103f 5690 59be 6e88 fabe f0c3 1b3f
000003c0: cf12 343f 5f37 13bf 4f2a f13e 1e9e b93e
000003d0: 1764 05bf e181 2a3f 7375 babf c15b 01bf
000003e0: 48ba 1fbf 091a dfbe dce0 c9be 3c35 983d
000003f0: 5c5a 163f 156d bd3e a98a d2bc ae9a c63e
-0.18704614 -0.924279 0.12810925 -0.39720666 -0.44768754 -0.5095297 0.14447215 0.18042836
0.48460755 0.2680868 -0.17541339 -0.6855689 0.75134146 0.13899653 0.46610737 -0.43615273
-0.030305395 0.112735905 -0.016338915 0.72283596 -0.04726233 0.22672151 1.1914821 -0.8610556
-0.3405147 0.503681 -0.26411536 -0.5078835 0.70482326 -0.5246809 0.5158163 -0.30938786
-0.45540226 0.41095775 -1.0208659 0.19688268 0.010600746 -1.1579341 0.27353337 0.24345754
0.8209163 -1.2804811 0.0093226405 -0.16603233 1.011776 -0.46796033 0.39945152 -0.4449946
-0.017423932 -0.13023786 0.28620604 -0.37023044 -0.39330852 -0.21719134 0.7066593 -0.041009687
-0.892395 -0.26850456 -0.32370356 -0.017169088 0.08862051 0.21627353 0.3150107 -0.7799553
-0.36084193 0.26638162 -0.3351335 -0.9773562 -0.21494992 -0.5310275 -0.6851101 0.14760688
0.27444157 -1.2650574 0.26274303 0.22963382 0.3403107 0.19616814 0.19258435 0.6184349
-0.4524926 -0.94338167 0.27938968 -0.20545115 -0.17600872 0.45380664 -0.14063771 0.4490579
0.24082157 0.10480867 0.47804135 0.7580483 -0.80256116 -0.8833571 -0.38815296 0.19620433
-0.10939775 1.5022374 -0.24467988 0.10254796 -0.85580117 0.7156552 -0.14709762 0.5207713
-0.46221316 -0.35124546 0.023697399 0.26770312 -0.10367811 0.011407455 -0.0063430555 -0.048932627
-0.5481463 0.008625326 -0.08060517 -0.67796344 0.590718 0.326675 0.05422872 -0.72404784
0.8325567 0.29056832 0.07221207 0.45500085 0.21432102 0.8164187 -0.3476748 -0.4451481
-0.57309186 0.8361469 -0.5729665 -0.4925874 -0.32066217 0.54742414 -0.7359764 -0.57358944
0.27258313 -0.0021086806 0.016822232 -0.2496761 -0.48638058 0.29159728 0.0019098021 -0.27823797
0.6592624 0.050584327 -0.11644705 -0.49267238 0.80196553 -0.17857279 -0.41516227 0.46681553
0.2253319 0.5951009 0.13278283 -0.31005478 0.6858882 -0.70977116 -0.027508859 -0.034916393
-0.30153686 -0.84150803 0.013672627 -0.8888385 -0.34551662 1.0631233 0.34832048 0.29164624
0.17344625 -0.11714382 0.68331194 -0.94851357 0.43817943 0.13368244 0.07078094 0.8138421
0.51434135 0.2987065 -0.10182911 0.5662323 1.0764068 -0.11571541 -0.58897156 -0.5265698
-0.15348111 0.5532474 -1.0278145 -0.03211528 -0.09174808 0.21897838 1.6265018 0.37440467
-0.89501387 -0.13281275 -0.12738241 -1.4616878 -0.25778803 -0.45745856 -0.10550735 -0.016768426
-0.4698674 0.16646613 -0.3958671 -0.613387 -0.16181718 -0.5766829 0.082790725 -0.35713628
-0.108586974 0.5893665 0.35470754 0.080939464 -0.49500751 0.24184957 0.17462811 -0.5398287
0.5514734 0.10713601 0.28120238 -2.1369557 -0.059692092 -0.45230818 -0.87672365 -0.2528049
0.6855619 0.10884524 0.10973669 -0.37578884 -0.8905343 -0.6971364 -0.16582823 -1.0810628
-0.43794033 -0.54685736 0.31559837 -0.37967852 0.56596166 -0.21246466 -0.48932213 0.6084585
0.703412 -0.57506365 0.4710259 0.36253446 -0.5210585 0.6660443 -1.4567093 -0.5053063
-0.6239362 -0.4357455 -0.39429367 0.07432029 0.5873163 0.36997285 -0.025700884 0.38789886

fc2.bias f4 [300]
00000000: e30d bebe 3628 39bf 0883 85bf f051 363e
00000010: 954b 19bf 6083 2fbf 2afd 59be 10bc 49be
00000020: e979 8abf ae5f f1be e4fd a6be 1294 083e
00000030: 79df 2abf cc3d b7be aa4e 96bf 693a dfbe
00000040: 11c0 3bbe 736e 05bf c471 b0bf b943 93bf
00000050: 3d49 28bf afd1 77be 4957 dabe 9e26 4dbf
00000060: c6e8 c7be c24c 24bf 735b dc3d 4b72 45bf
00000070: 3c63 bfbe 0432 d7be 9f99 09bd 7130 eebe
00000080: 2364 08bf c052 fdbe 3bb9 0ebf fdb0 1abf
00000090: ce7f 3dbf 1baa 25bf 4e23 62be 0d2d acbd
000000a0: 3cc1 75be 1dce 8c3d a707 cdbe f3c2 313e
000000b0: cbe9 b5bf bde8 69be 2749 bcbf 32ac 52be
000000c0: 3dc8 bebd bcec cebe 8638 05bf 7d7d 1a3e
000000d0: bc20 b8be 67a4 88bf b0da f1be 9b69 fdbe
000000e0: 6ab7 42bf d225 94bd edd4 003f 2587 3cbf
000000f0: 0390 11bf 7397 21bf 7cbb 5ebe d2c6 2fbf
00000100: bb3d cbbe 2f2e a3be 17b7 21be 1600 17bf
00000110: b95f 79be dbae 8d3e 229f dcba 751a 6fbe
00000120: fac1 dcbe 052b 07bf c202 833d 6b21 563d
00000130: 48cc f5bd 9034 4abf 6856 e7bd 19ec 2dbf
00000140: 58c6 03bf af3c 58be cd0a 83bf 7510 0ebf
00000150: b6d4 afbe 3961 c83d 0582 10bd 5600 863d
00000160: ad27 13bf 7543 21bf 3c57 78bf 6a5f 33bf
00000170: c54c 22be 2955 26bf c094 a5be 1137 21bc
00000180: cfea 223e bf75 aebe 8e42 58bf 9594 c1be
00000190: 060c 5c3e 2d44 5e3d 7da5 29be 94e9 453e
000001a0: b22a 36be d14e 533c 19d5 9cbe d7de 67bf
000001b0: 4151 37bf 138b e0be 28ca b93d c1d4 c9be
000001c0: 55cd d1be efd8 b1bf efb2 25be bd12 83bf
000001d0: a077 19bf c9a1 ab3e 45bb c8be eedc 27bf
000001e0: 2f1b 36bf f3ee 6ebf 1981 c6be 7e92 25bf
000001f0: 01f1 47bf 8e9b f9be a5de f9be bfed 22bf
00000200: 2049 103e 4f7e a8bd 5acc b3be 91da c6be
00000210: 7fcb b9be 89a1 0abf 8389 2cbf 0862 1cbf
00000220: bd97 03bd 369e 84be 23d5 19bf 8d6e 3abc
00000230: a50f 05bf dd8f a8be 625e 55be 5504 2cbf
00000240: 594e 85be 5998 a5bf 3684 24bf 5198 7fbe
00000250: 7f9c 1ebf 0a7b 5ebf 2e74 c5be c6c9 29bf
00000260: d17f 47be e8c9 bebe 902b 293b b090 eebe
00000270: 4bbe c33b 9c11 27be b862 d0be bf18 15be
00000280: f40f 06bf 0088 7f3c 2d91 af3d f57a a1bd
00000290: f71f 84be 2fb3 bdbe fda2 97bf d8f8 67be
000002a0: 4a51 7cbe 0be1 dbbe a97d adbe 410b 2ebf
000002b0: 9cf6 aebf 5182 043e b502 28be 302a e1be
000002c0: 146f c0be 1b8e ddbc 23ac 1fbf acca d5bc
000002d0: 5dc4 c7bd 00af b0bc 8b70 0fbf 816a 8ebf
000002e0: 47c2 acbe 8278 27bf ab25 e6be 5961 efbe
000002f0: 32cb db3b 933a cdbe fb2b d3be ab1c c7be
00000300: 32c1 c6bf 7798 e33c f7c7 05bf b7f7 47bf
00000310: a2ea 8cbf a5a5 87bd eaad dfbe e305 4dbf
00000320: 5278 76bf 6376 41bf 8f90 d8bd 06db ce3e
00000330: ba3a 30bf 6a67 423d 5d60 4abf 4f79 68bf
00000340: 9392 1cbf 47d6 67bf c4aa 0cbe 857b 4abd
00000350: cb05 b1be a25d 86be b58d e9be ae5f 05be
00000360: 4394 41be 14eb 96be 6754 05bf 6ae0 1dbf
00000370: 3d84 05bf cfc4 acbe 48f5 c3be ef48 42bf
00000380: 0946 463c fb77 12bf f766 43bf ba77 d43d
00000390: 2681 09bf 01ee 67be fa45 fbbe debe 28bf
000003a0: e3f0 abbe 2b3e 0abf 9a77 2ebe d5b8 88be
000003b0: 7739 aabe 4ec7 52bf f4ef 0ebf b7dd 04bf
000003c0: 6ae9 2cbe 2d85 85be 5f47 513e 49fe 75be
000003d0: 8951 0fbe f39d edbe 9334 f6be 6c16 1abd
000003e0: 216d 3dbf 878f f4be ee6c 85bf 09f8 02bf
000003f0: 34ea a4be 6d88 4fbf b806 cdbc 52f5 38bf
-0.3711997 -0.7232698 -1.0430613 0.17804694 -0.59880954 -0.6855984 -0.2128798 -0.19700646
-1.0818454 -0.4714331 -0.32615578 0.13337734 -0.6674724 -0.35789335 -1.1742756 -0.4359925
-0.18334986 -0.5212166 -1.3784719 -1.1505042 -0.6573675 -0.24201082 -0.42644718 -0.8013705
-0.3904478 -0.64179623 0.1075963 -0.7712752 -0.37380397 -0.42030346 -0.03359377 -0.46521333
-0.53277797 -0.49477196 -0.5575139 -0.6042631 -0.7402314 -0.64712685 -0.2208378 -0.0840703
-0.23999494 0.068752505 -0.400449 0.17359523 -1.4211973 -0.22842689 -1.4709824 -0.205735
-0.09315536 -0.4041499 -0.5203937 0.15086932 -0.35962474 -1.0675172 -0.47237158 -0.49494633
-0.7606112 -0.07233776 0.503249 -0.73643714 -0.5686037 -0.6312172 -0.21751207 -0.6866275
-0.39695534 -0.31871173 -0.157925 -0.58984506 -0.24352922 0.27672467 -0.0016832093 -0.23349936
-0.43116742 -0.5280002 0.063970104 0.052277964 -0.12001854 -0.78986454 -0.112957776 -0.6793838
-0.51474524 -0.21116899 -1.0237671 -0.5549386 -0.34341973 0.09784169 -0.035280246 0.06543033
-0.57482415 -0.62993556 -0.9700811 -0.70067465 -0.15849598 -0.64973694 -0.3234005 -0.009839789
0.15909885 -0.34074208 -0.84476554 -0.37808672 0.21488962 0.054264236 -0.16567035 0.19327384
-0.17789724 0.012897209 -0.3063133 -0.905744 -0.7160836 -0.43856105 0.09071761 -0.3942013
-0.40976968 -1.3894328 -0.16181539 -1.0240093 -0.5994816 0.3352187 -0.39205375 -0.65571487
-0.7113523 -0.9333336 -0.3877037 -0.64676654 -0.7810212 -0.4875149 -0.48802677 -0.6364402
0.14090395 -0.082272165 -0.35116845 -0.38838628 -0.36288068 -0.54152733 -0.67397326 -0.61087084
-0.03212713 -0.25901955 -0.60090846 -0.011378896 -0.51976997 -0.3292226 -0.20836785 -0.6719411
-0.26036337 -1.2937118 -0.6426424 -0.24960448 -0.61957544 -0.8690649 -0.385652 -0.66323507
-0.19482352 -0.37263417 0.0025813319 -0.46594763 0.0059736124 -0.16315311 -0.40700316 -0.14560221
-0.5236809 0.01559639 0.08572612 -0.0788478 -0.25805637 -0.3705077 -1.1846615 -0.2265352
-0.24640384 -0.42945132 -0.33884934 -0.6798592 -1.3669009 0.12940337 -0.16407283 -0.439775
-0.37584746 -0.0270453 -0.62372035 -0.026097618 -0.0975425 -0.021567822 -0.560311 -1.1126252
-0.33741972 -0.65418255 -0.44950613 -0.46753958 0.0067075724 -0.4008375 -0.41244492 -0.3888906
-1.5527709 0.027782662 -0.5225825 -0.7811236 -1.1009104 -0.06623391 -0.43687373 -0.8008711
-0.96277344 -0.7557127 -0.10574447 0.40401477 -0.6883961 0.047461905 -0.7905329 -0.908101
-0.61161155 -0.90561336 -0.13737017 -0.049434204 -0.34574732 -0.2624331 -0.45615926 -0.1302478
-0.18904214 -0.29476225 -0.5208191 -0.61670554 -0.52154905 -0.33743903 -0.38273072 -0.7589254
0.012101659 -0.57214326 -0.76328987 0.103743985 -0.5371269 -0.22649385 -0.49076825 -0.6591624
-0.3358222 -0.5400111 -0.17037812 -0.26703516 -0.33246967 -0.82335365 -0.5583489 -0.5190081
-0.16885915 -0.26078168 0.20437382 -0.24022783 -0.13995947 -0.46409568 -0.48086986 -0.03761904
-0.7399464 -0.47765753 -1.0423868 -0.5115972 -0.32209933 -0.81067544 -0.025027618 -0.7224933

fc3.weight f4 [4, 300]
00000000: 713b 953e cadd 6d3f 1218 1d3f 75ca 28bf
00000010: a7a4 cd3e 94ed 8b3d 0ac3 0b3f 4687 21be
00000020: 84d1 9d3e bedc 13bf f3f9 903e 28fc 103d
00000030: f3b7 9e3d a64c 71bf 3963 89be e3a3 f93e
00000040: 73eb f83d 21ce c4be 9b3b 86be 7ee0 293f
00000050: d652 3a3f 9856 aebd 50fd 3a3e 02ab 4fbf
00000060: bd31 a83d f123 793e c96f af3e cfb9 b0bc
00000070: ba50 f3be 1235 ab3e b85a 61be 943b da3e
00000080: 6b6b a0be 2c16 243f 991f a53d be1c 0b3e
00000090: 6ae1 0d3b 81a6 d8be 5d6f b3bf c766 2cbf
000000a0: 83aa b9be f162 813e c56a a9bf aa92 823e
000000b0: 7eb8 c6be 9b8e 8e3f 0b1d f1bb 65d2 b63d
000000c0: c8d3 293f 9b47 0b3f 50d8 53be c433 bb3e
000000d0: 91b9 89be ba9b 003f 24f0 0b3d 2858 513e
000000e0: febd c2be f9ac 05be 1242 4e3e e124 fbbd
000000f0: 75d8 18be acdb 7d3c e8e5 41be 3fc4 28bf
00000100: 27b6 8cbe 8394 b73f 97a9 26bf a671 5b3f
00000110: e386 403e 019e 61bf 57cd d63d bfcb fdbd
00000120: 15cc b4be 92ee fb3d abb1 73be ae76 763d
00000130: a3b4 81bd bf50 4abf 2e18 f63e b483 d4bd
00000140: 9393 513e 5b43 15be 9340 853f ed1b c5bd
00000150: d822 1cbe d44d 3dbe e0b3 833c bf33 023f
00000160: 9e97 c8be a316 3ebe dc01 113f 1e14 033f
00000170: be0b a43d c495 6d3f a14c 733f ba7d 4cbd
00000180: 63cc 7b3f ff41 2e3e 927a d93e 6017 c03e
00000190: 315e f3be 82ae d63c 2a08 aabe b89f 31bf
000001a0: 9463 ee3e 17aa 40bf 07c9 0cbe be3b 493d
000001b0: f2b0 453e abd2 183e 5443 28bf bee5 3abe
000001c0: ce69 87be b316 22bf 1ac3 d1bd 4bf2 d13d
000001d0: 20b6 a2bf b369 fa3e b00a e0be a15a 9ebe
000001e0: 7e9b 40bf eca9 453f 4fc9 313e ed12 31bd
000001f0: 0de0 eabe a367 a5be 987e 98be 1d92 fbbe
00000200: 6f9e 0cbf bce3 5cbe 4489 843f 93d0 e13c
00000210: c245 cebe 5417 31be e8c4 db3d 2910 40be
00000220: e638 b03c 2bf8 86bd a6bc 92be 01f2 0cbe
00000230: 40a9 30be 7bd5 353e 4b0d efbd 1b35 9b3e
00000240: 9d63 31bd 170d f43e 93f7 98bd 86fd 383f
00000250: 05a1 67be 6468 10be f962 bebe 114f 4c3e
00000260: e7db cebe a3fb d93e 78f7 413e 2af7 1e3d
00000270: 2962 ca3d b85a 48bf 15f5 7e3c 5c77 f3be
00000280: 2e15 86bd 9061 39be 0c4d e73d c579 a9bd
00000290: 1bb7 ec3e 893b f33e dfdf fa3d a72f 5b3e
000002a0: 0483 7c3c 3bdd 7ebd 92af 8e3c 2675 343e
000002b0: 7c05 193e fd28 103f 1568 b4be 1104 b53e
000002c0: fac7 413f 0ac4 6cbb f325 eb3e 19a2 85bc
000002d0: 586d 8fbe c252 593e 9598 b93e 5363 9e3e
000002e0: e5c1 283d 63a9 47be 3198 0e3f d72c fdbd
000002f0: a2d3 173e ac2a 06bf 3010 f8bd 3d44 07bf
00000300: 0715 29bf f0ae 3cbe aea3 b63e e8af e1be
00000310: 3626 4fbf 502b 983f 3d80 203e 5cc0 233e
00000320: ceed 4d3e a41d 00bf 1be3 70bf 1363 9f3d
00000330: 80e3 b2ba 8cc1 7abf c17d 543e e044 5c3e
00000340: 9469 6b3f 24da 773e 9230 073f 0fd5 6ebe
00000350: 56bc 21bf f579 36bf 3a56 c1bd 3e56 273f
00000360: d6da be3c 09ad e83d c52d 653f 60fb 96be
00000370: e03c 3c3f 4e2a 323f 5607 01be 3f55 cfbd
00000380: 568a ccbc dd04 94bd 92b6 24bf 7cfe 56bf
00000390: 3652 71be 4b93 95bc fcb2 c43e 47fc 03bf
000003a0: eeba 4ebe 2231 8a3d ccc1 763e 73bd b4be
000003b0: 3a70 debe 22f9 7e3d 1a4f c0bd b03b d73e
000003c0: a5cc ff3e cf77 78bf 75b5 cabe ff3c c4be
000003d0: d921 f43d d800 813e c6a0 b23e ce8d 83bd
000003e0: 489d 4e3f df94 25be b96b 573e bd45 9ebe
000003f0: 4faf b0be 391e dc3e a1b8 ecbe b879 01bf
0.29146913 0.9291655 0.61364853 -0.65933925 0.40164682 0.06832424 0.5459448 -0.15774259
0.3082391 -0.577587 0.28315696 0.035396725 0.07749929 -0.9425758 -0.26833513 0.48757848
0.121542834 -0.38438514 -0.2621735 0.6635817 0.7278265 -0.0851261 0.18260694 -0.8112031
0.08212612 0.24330117 0.34264973 -0.021572975 -0.47522527 0.33438927 -0.22007263 0.4262358
-0.31331953 0.6409633 0.080626674 0.13585183 0.002164925 -0.42314532 -1.401836 -0.67344326
-0.36262903 0.252708 -1.3235708 0.2550252 -0.3881263 1.113727 -0.0073581985 0.08926848
0.6633878 0.54406136 -0.20687985 0.36562932 -0.26899388 0.5023762 0.034164563 0.20443785
-0.38035578 -0.13054265 0.20142391 -0.122628935 -0.14926322 0.015494268 -0.18935359 -0.6592445
-0.2748272 1.4342197 -0.65102524 0.8572029 0.18801455 -0.8813172 0.10488384 -0.12392377
-0.35311952 0.12301363 -0.23798244 0.060171776 -0.06333282 -0.7902946 0.48065323 -0.10376683
0.20466451 -0.14576475 1.0410331 -0.09624467 -0.15247667 -0.1848672 0.016076982 0.5086021
-0.39178175 -0.18563323 0.5664346 0.5120257 0.08010052 0.9280665 0.950388 -0.04992459
0.98358744 0.17017363 0.42476326 0.37517834 -0.475328 0.026206259 -0.33209354 -0.69384336
0.46560347 -0.75259537 -0.13748561 0.04912924 0.1930578 0.14924113 -0.65727735 -0.18251702
-0.2644791 -0.63315886 -0.10242291 0.10251292 -1.271183 0.48908767 -0.43758154 -0.3092852
-0.7523726 0.77212405 0.1736195 -0.04323094 -0.45874062 -0.3230563 -0.29784083 -0.49134913
-0.5492925 -0.21571249 1.035439 0.027565276 -0.40287596 -0.17294055 0.10730916 -0.18756165
0.021511506 -0.06590303 -0.28659552 -0.13764192 -0.17252064 0.17757218 -0.11672457 0.30313954
-0.04330789 0.47666237 -0.07469096 0.72261846 -0.22620018 -0.14102322 -0.37184885 0.19952036
-0.40402147 0.42574796 0.18942058 0.038809933 0.09882004 -0.78263426 0.015561362 -0.47552
-0.065470085 -0.18103623 0.112939924 -0.08275179 0.46233448 0.4750636 0.12249731 0.21404897
0.015412096 -0.0622227 0.017417703 0.17622814 0.14943498 0.56312543 -0.35235658 0.35354665
0.75695765 -0.003612759 0.4592739 -0.016312646 -0.2801311 0.21222976 0.36249223 0.30935153
0.041200537 -0.1949821 0.55700976 -0.12362068 0.14826825 -0.5240886 -0.121124625 -0.528385
-0.6604771 -0.18426108 0.35671753 -0.44079518 -0.8091768 1.1888218 0.15673919 0.15991348
0.20110247 -0.5004523 -0.94096535 0.07782569 -0.0013648123 -0.9795158 0.20751096 0.21510649
0.91957974 0.24204308 0.5280849 -0.23323463 -0.63178 -0.7127984 -0.094402745 0.6536597
0.023297708 0.11361129 0.89522964 -0.2948866 0.7353039 0.695958 -0.12600455 -0.10123681
-0.024968307 -0.0722749 -0.6434108 -0.8398206 -0.23566517 -0.018258711 0.38417804 -0.5155682
-0.20188496 0.067476526 0.24097365 -0.35300788 -0.43444997 0.06224931 -0.093900874 0.42037725
0.4996082 -0.97057813 -0.39591566 -0.38327786 0.119205184 0.25195956 0.34888285 -0.064235315
0.8070874 -0.16170071 0.21037187 -0.3091258 -0.3450875 0.42991808 -0.4623461 -0.50576353

fc3.bias f4 [4]
00000000: f9f5 ac3e ccc9 10be ea39 64be 6902 2ebe
0.33781412 -0.1413948 -0.22287717 -0.16993107
