example_models/critic.pth (torch, 157023 bytes, 5 tensors)

fcs1.weight f4 [128, 33]
0.022560155 -0.43166155 -0.07290614 -0.5394073 1.0679485 1.4078164 3.0032814 -0.2838794
0.22482046 0.26902807 -0.033428412 -0.02752527 -0.036828626 0.059784867 0.07933623 -0.07593088
1.082269 -0.054671206 -1.0866189 -0.5215584 0.023520226 -0.015389107 0.052824065 -0.005236626
-0.015665988 0.09692248 -0.18161446 0.7025516 0.15666498 -0.068342 -0.82027906 0.030700356
-1.7807543 -0.17025505 -0.34619778 0.25253463 0.032226935 -0.9194995 0.15901943 1.5970393
-0.2212002 -0.3995237 -0.28777653 -0.002069878 -0.032281067 -0.00887684 0.29933077 0.026519869
-0.23660092 0.26922494 -0.8338032 -1.059753 -0.2921879 0.03009911 0.070190705 -0.08431382
-0.037971407 0.047299847 -0.117367335 -0.2915942 0.6494561 -0.09416844 0.046769254 -0.6858344
-0.05950862 -0.8755718 0.4008913 0.008239451 0.021830866 0.36583918 -1.5899823 0.5621662
-0.40645093 0.02861523 -0.22925015 0.10461561 -0.093143895 0.13327686 0.08564266 -0.10409139
-0.02111122 0.07081308 2.329595 0.27399403 1.0791732 -0.6631651 -0.01157179 0.022912638
0.12497627 -0.0128075695 -0.13567565 0.049728323 -0.29185092 0.87297 0.008137283 -0.047793955
-0.8783412 -0.041466713 -1.6618993 0.14042084 0.23057446 0.003736723 -1.8021994 1.4247817
2.4201214 0.40033126 -0.04503278 -0.33092675 -0.05215728 -0.06215793 0.021786973 -0.10292501
-0.024900593 -0.07190827 -0.0644483 0.46563944 1.2256029 -0.8661057 -0.38682458 0.0076764645
-0.007144509 0.01230087 -0.010420511 -0.027044393 -0.07959547 -0.10309465 0.53263986 0.06724937
0.030284956 -0.4547399 0.025787264 3.3988707 -0.24398337 -0.28733692 -0.107622504 0.16393219
1.0095582 -1.1607777 0.13481812 0.013548945 -0.019049978 -0.24043995 -0.03820866 0.024431644
0.08331767 0.24409154 0.4183071 0.27323768 -0.21999212 -0.33854958 -0.15318328 0.6944195
-0.015722519 -0.0022222756 0.026786754 0.038612764 0.3112206 0.11563177 -0.20041904 -0.11207626
-0.19809313 0.06967712 0.018948587 0.05586233 -0.2209489 -0.102601305 -0.09787865 0.09918521
-0.32931244 -0.39071983 0.963568 0.028428571 0.035375 0.32635593 0.073487975 0.17315009
-0.053459767 0.07982086 0.14621747 0.36909363 -0.13217217 0.79476297 -1.7014194 -0.20276408
-1.2859335 0.054034133 -0.02014655 0.025213055 0.06159706 0.15055835 -0.14562893 0.08444706
0.24679416 0.04254589 0.046448804 -0.3779995 0.049281172 0.8122934 0.01949528 0.3215798
0.12783277 0.061951213 -0.27177078 0.73900795 -1.233444 0.07490554 -0.21984155 -0.049615648
0.03994501 0.12189294 0.08022475 0.010796911 -0.10487018 -0.39710414 -0.13949127 1.0153198
0.43289176 -0.056293678 -0.015275404 -0.1141248 0.05133654 0.06621551 0.044505306 0.033155464
-0.10501293 0.53190356 -0.07653564 0.06357544 -0.4949737 -0.027865462 1.423044 0.057290114
0.3081191 -0.047970556 1.094856 0.71005124 -0.45169824 0.67418516 -0.008129729 0.17983888
-0.25611633 0.038518783 0.0038062248 -0.11734613 -0.32325613 -0.1813754 -0.0938685 -0.35944602
-0.9003956 -1.2082256 0.71703285 0.02444625 0.04690011 -0.015365093 -0.0858326 -0.0581368
00000000: 13d0 b83c be02 ddbe d04f 95bd 9916 0abf
00000010: 89b2 883f 5433 b43f c335 4040 a458 91be
00000020: 5637 663e 0cbe 893e 3bec 08bd ad7c e1bc
00000030: 9dd9 16bd fae0 743d 097b a23d a681 9bbd
00000040: ca87 8a3f eaee 5fbd 5416 8bbf da84 05bf
00000050: 7dad c03c 9822 7cbc 0c5e 583d 0198 abbb
00000060: f555 80bc 4b7f c63d 24f9 39be 6cda 333f
00000070: c96c 203e e4f6 8bbd cffd 51bf 507f fb3c
00000080: c2ef e3bf 5757 2ebe d640 b1be 384c 813e
00000090: 6400 043d 5264 6bbf fdd5 223e c96b cc3f
000000a0: 4e82 62be 5f8e ccbe 7257 93be caa6 07bb
000000b0: 2739 04bd 2a70 11bc e241 993e 3240 d93c
000000c0: 8347 72be dad7 893e 2074 55bf fca5 87bf
000000d0: a799 95be 6992 f63c 25c0 8f3d b9ac acbd
000000e0: e887 1bbd 7cbd 413d 495e f0bd d64b 95be
000000f0: c142 263f 62db c0bd 1e91 3f3d d892 2fbf
00000100: 50bf 73bd 7925 60bf a041 cd3e c3fe 063c
00000110: a5d6 b23c 464f bb3e 8a84 cbbf 20ea 0f3f
00000120: 561a d0be 7d6a ea3c 8dc0 6abe b540 d63d
00000130: 3ac2 bebd bb79 083e 6b65 af3d de2d d5bd
00000140: 70f1 acbc 7306 913d 1618 1540 f248 8c3e
00000150: 5922 8a3f 30c5 29bf 9b97 3dbc 49b3 bb3c
00000160: 8ff3 ff3d d7d6 51bc 8fee 0abe edaf 4b3d
00000170: 7c6d 95be f67a 5f3f 3d52 053c 98c3 43bd
00000180: f8da 60bf 00d9 29bd 1eb9 d4bf 7bca 0f3e
00000190: b61b 6c3e cfe3 743b 78ae e6bf 3f5f b63f
000001a0: 45e3 1a40 38f8 cc3e 4b74 38bd 3b6f a9be
000001b0: dfa2 55bd 5099 7ebd 987a b23c 59ca d2bd
000001c0: 54fc cbbc a544 93bd 78fd 83bd 4b68 ee3e
000001d0: 8ee0 9c3f 1ab9 5dbf df0d c6be da8a fb3b
000001e0: 7c1c eabb 9789 493c caba 2abc 348c ddbc
000001f0: f302 a3bd 4a23 d3bd 165b 083f 0aba 893d
00000200: 2818 f83c abd3 e8be d03f d33c 1987 5940
00000210: c7d6 79be d31d 93be 3069 dcbd d7dd 273e
00000220: 3439 813f 5d94 94bf c30d 0a3e 65fc 5d3c
00000230: b30e 9cbc e435 76be af80 1cbd df24 c83c
00000240: 74a2 aa3d 22f3 793e 592c d63e cfe5 8b3e
00000250: 9d45 61be 5f56 adbe 14dc 1cbe 7ac5 313f
00000260: 83cc 80bc 99a3 11bb e56f db3c 6b28 1e3d
00000270: 4e58 9f3e 59d0 ec3d a63a 4dbe 3d88 e5bd
00000280: edd8 4abe e1b2 8e3d 113a 9b3c e6cf 643d
00000290: 6e40 62be a220 d2bd 9a74 c8bd 9e21 cb3d
000002a0: a49b a8be 6e0c c8be 64ac 763f 09e3 e83c
000002b0: 60e5 103d 2018 a73e dd80 963d 424e 313e
000002c0: a1f8 5abd 1e79 a33d 08ba 153e d7f9 bc3e
000002d0: 2458 07be 9675 4b3f 1cc8 d9bf 63a1 4fbe
000002e0: 7899 a4bf e552 5d3d 610a a5bc 9c8b ce3c
000002f0: 334d 7c3d f82b 1a3e c01f 15be 95f2 ac3d
00000300: 9cb7 7c3e 9944 2e3d 1a41 3e3d 2789 c1be
00000310: 0edb 493d 76f2 4f3f 91b4 9f3c 1ca6 a43e
00000320: 98e6 023e 8ec0 7d3d 8a25 8bbe a02f 3d3f
00000330: 7ee1 9dbf 1368 993d 251e 61be c739 4bbd
00000340: 619d 233d 01a3 f93d e04c a43d 87e5 303c
00000350: 2dc6 d6bd 3c51 cbbe cdd6 0ebe 00f6 813f
00000360: fda3 dd3e 3394 66bd b045 7abc 43ba e9bd
00000370: 4446 523d ff9b 873d 324b 363d 06ce 073d
00000380: 0511 d7bd d52a 083f b8be 9cbd d733 823d
00000390: 316d fdbe 1c46 e4bc 4e26 b63f 0aa9 6a3d
000003a0: c9c1 9d3e c67c 44bd 3e24 8c3f ebc5 353f
000003b0: fe44 e7be 6697 2c3f 8e32 05bc af27 383e
000003c0: ae21 83be dfc5 1d3d db71 793b 2b53 f0bd
000003d0: d481 a5be 79ba 39be 213e c0bd 4f09 b8be
000003e0: 5380 66bf 23a7 9abf 778f 373f 8143 c83c
000003f0: 541a 403d dfbd 7bbc 01c9 afbd da20 6ebd

fcs1.bias f4 [128]
-0.7054211 -0.5410359 -0.66719615 -0.31885204 -0.010203526 -0.28444517 -0.6415759 -0.40227968
-0.44852632 -0.28164265 -0.81833494 -0.40164188 -0.4790334 -0.9751198 -0.1549157 0.03380204
-0.5962073 -0.23986201 -0.4718966 -0.32158855 -0.2205291 -0.24569501 -0.5476797 -0.18395367
-0.45073006 -0.45447603 -0.35955933 -0.5455902 -0.36517102 -0.20455444 -1.0103252 -0.1475972
-0.40269578 -0.4435543 -0.73038465 -0.27971175 -0.3723762 -0.71772087 0.025083525 -0.5411438
-0.4309129 -0.5010011 -0.6558805 -0.48073235 -0.4043184 -0.80960745 -0.38729194 -0.6581467
-0.396499 -0.102164246 -0.4864574 -0.43528172 -0.5492731 -0.40712735 -0.2790821 -0.54609996
-0.57602143 -0.2940585 -0.28940144 -0.4848913 -0.33163443 -0.1143835 -0.68536687 -0.37112606
-0.7194248 -0.6854117 -0.08752745 -0.87858564 -0.45354283 -0.016193843 -0.5333781 -0.77325594
-0.6098627 -0.48681337 -0.23295544 -0.5092703 -0.3754971 -0.3997751 -0.32287484 -0.5949843
-0.34950474 -0.44281673 -0.20123957 -0.57930106 0.043962095 -0.7627449 -0.34338903 -0.8737797
-0.6323606 -0.37282726 -0.55831397 -0.21918291 -0.35583636 -0.44067925 -0.42754966 -0.61395055
-0.46235391 -0.34687686 0.010976806 -0.41322908 -0.4866486 -0.41862446 -0.50496167 -0.56858486
-0.008230886 -0.31447023 -0.42965022 -0.76085395 -1.0500119 -0.8738588 0.17417991 -0.117286555
-0.8031536 -0.25525552 -0.24922961 -0.93472034 -0.38946992 -0.21382476 -0.36075538 -0.65174097
-0.81409264 -0.32431388 -0.19441846 -0.66840595 -0.07749309 -0.4865719 -0.09532134 -0.7665692
00000000: 7a96 34bf 5481 0abf 5ecd 2abf 9340 a3be
00000010: b12c 27bc cca2 91be 513e 24bf 9af7 cdbe
00000020: 3ea5 e5be 7733 90be 667e 51bf 01a4 cdbe
00000030: de43 f5be 74a1 79bf 39a2 1ebe 0274 0a3d
00000040: 0ba1 18bf 639e 75be 6e9c f1be 41a7 a4be
00000050: 61d2 61be 7997 7bbe bd34 0cbf 5a5e 3cbe
00000060: 17c6 e6be 15b1 e8be 2918 b8be cdab 0bbf
00000070: b2f7 babe b876 51be 5652 81bf b823 17be
00000080: 242e cebe 8d19 e3be 7dfa 3abf 6136 8fbe
00000090: 18a8 bebe 8ebc 37bf f77b cd3c 6688 0abf
000000a0: 9ea0 dcbe 9c41 00bf c9e7 27bf 8d22 f6be
000000b0: d202 cfbe 6f42 4fbf 214b c6be 4d7c 28bf
000000c0: eb01 cbbe 7d3b d1bd f210 f9be 3fdd debe
000000d0: 299d 0cbf ff72 d0be d9e3 8ebe 35cd 0bbf
000000e0: 2476 13bf d68e 96be 6d2c 94be ac43 f8be
000000f0: fdcb a9be e541 eabd 3474 2fbf 3c04 bebe
00000100: 392c 38bf 2477 2fbf 9741 b3bd fdea 60bf
00000110: c436 e8be f3a8 84bc 788b 08bf 1af4 45bf
00000120: f61f 1cbf 9a3f f9be df8b 6ebe 8a5f 02bf
00000130: 2841 c0be 52af ccbe da4f a5be e450 18bf
00000140: 49f2 b2be e0b8 e2be bf11 4ebe 134d 14bf
00000150: 9911 343d 4043 43bf b0d0 afbe 07b0 5fbf
00000160: 62e2 21bf 37e3 bebe aaed 0ebf 7c71 60be
00000170: 2f30 b6be b6a0 e1be cae7 dabe dd2b 1dbf
00000180: a7b9 ecbe d899 b1be 10d8 333c c392 d3be
00000190: 012a f9be f255 d6be 2b45 01bf c78e 11bf
000001a0: d7da 06bc 3e02 a1be 1dfb dbbe 53c7 42bf
000001b0: ca66 86bf 36b5 5fbf 385c 323e ef33 f0bd
000001c0: 799b 4dbf dab0 82be 0c36 7fbe d549 6fbf
000001d0: 9a68 c7be e1f4 5abe eeb4 b8be 7fd8 26bf
000001e0: 6068 50bf 780c a6be a215 47be a71c 2bbf
000001f0: b2b4 9ebd f41f f9be d637 c3bd e13d 44bf

fc2.weight f4 [256, 132]
-0.46573347 -0.48397365 -0.70888203 0.52554387 -0.3976396 0.18330637 -0.077078946 -0.57807696
-0.46020097 0.20979752 -0.060768995 -0.14598414 -0.2114246 0.12149694 -0.23019421 0.26873013
0.3064211 -1.936394 -0.48763165 0.3009645 0.0727063 0.01899118 0.15024793 -0.17374653
-0.058500793 -0.506552 0.23722593 -0.34724995 -0.16229068 0.15766041 0.26243553 0.096693456
0.6493207 -0.19037592 -0.4420001 0.0739942 -0.07484345 -1.3730447 -0.06707626 0.054538768
-0.57365465 0.57624996 0.15299693 -0.15650591 -0.19684288 0.63933533 0.6843322 -1.8555464
-0.4180644 -0.4107183 -0.11333562 -0.6304392 -0.6086075 -0.99315566 0.024732642 -1.0470982
-0.7597468 0.10189531 0.250867 0.114055924 -0.1456616 0.27680883 -0.0572152 -1.3073838
0.40349057 -0.1481312 -0.06890983 0.6791801 0.21076012 -0.16188432 -0.99882954 -0.80954504
0.18711156 -1.130716 0.089274116 0.06912278 0.08615789 -0.17419097 -0.23603618 -0.0011577178
0.21058325 -0.48866534 -0.00066981063 -0.27351737 0.15349618 0.03742894 0.18777204 0.38819817
0.43220776 0.008836378 0.8108208 -0.16728161 -0.85966337 -0.26812577 0.17115524 0.835279
-0.24438609 -0.18284345 0.3979679 0.24635462 0.34623808 -0.1753275 -0.64851636 0.30169284
-0.25043905 -0.039603945 0.15482433 -1.8501059 -0.9106507 0.13629054 -1.4067985 -0.29583514
-0.18668103 0.2977593 0.47919485 1.0993485 -1.3005824 -0.38951617 -0.7488262 -0.36752456
0.05194047 -0.02579108 -0.18021022 -0.8338295 -0.2584069 -0.012317414 0.09619718 -0.49570325
0.14355554 -0.07957025 0.20125112 0.10414998 -0.32191253 -0.49084103 0.25029263 -0.2231535
0.026090775 -0.27983126 -0.09711645 -0.90130013 0.14238994 -0.34438944 0.10915119 0.5724574
0.34505934 0.23539624 -0.28437355 -0.116342686 0.149513 0.73348504 -0.707998 -0.059635308
0.31633964 -0.14939882 0.074411444 0.044735115 -0.07772361 -0.5399705 0.38178483 -0.5772692
0.6074425 -0.3743196 -1.0744077 -0.16884734 -0.18002155 -0.20705132 0.1817918 -0.11462601
0.020514986 -0.06950308 -0.3957088 0.09717253 -0.07374545 0.065499164 -0.23539314 0.08835354
0.13181326 -0.059623428 0.11458065 -0.310479 -0.024135495 0.35151199 0.36631492 0.25341728
-0.2624058 0.30183822 0.24333496 -0.13823482 -0.12760021 -1.0587081 -0.07246663 0.098459266
-0.20820652 -0.2159182 0.034979872 -0.34391493 0.33873415 0.87753266 -0.41993764 -0.34629932
0.2743363 0.0023685263 -0.089450374 -0.42680678 0.060167063 -0.0020649238 -0.13156945 0.3748263
0.020820562 -0.52636033 0.18354014 0.17046647 0.41271743 -0.22756806 -0.1024369 0.45563868
-0.21876995 0.51540047 0.043549206 0.019673005 0.2021512 -0.035950232 0.13726866 -0.067199916
0.0070094503 0.4229478 -0.34824294 0.25180158 -0.18313296 0.18806833 0.3994714 0.19081251
0.31082022 0.12964416 0.242748 -0.09266458 0.02412581 -0.22609875 0.17705889 0.110004716
-0.00019417772 0.15505978 -0.32935426 0.35574025 -0.09576454 0.63992405 -0.42766976 0.30100936
-0.17920086 0.119096994 -0.11221296 -0.23718032 0.031278845 -0.08940433 -0.11380597 -0.7492875
00000000: 9e74 eebe 65cb f7be 4b79 35bf 0b8a 063f
00000010: 6b97 cbbe aab4 3b3e 91db 9dbd dafc 13bf
00000020: 769f ebbe 29d5 563e e9e8 78bd de7c 15be
00000030: b17f 58be 63d3 f83d 08b8 6bbe ff96 893e
00000040: 3ae3 9c3e c2db f7bf dbaa f9be 0518 9a3e
00000050: 0ae7 943d 6493 9b3c 98da 193e 9cea 31be
00000060: 879e 6fbd 64ad 01bf 5beb 723e bfca b1be
00000070: 872f 26be bb71 213e f35d 863e 3807 c63d
00000080: e239 263f e8f1 42be d64d e2be 458a 973d
00000090: 8647 99bd eebf afbf 475f 89bd 0b64 5f3d
000000a0: 08db 12bf 1e85 133f 3aab 1c3e 1643 20be
000000b0: 2e91 49be 7bab 233f 6530 2f3f 8b82 edbf
000000c0: 890c d6be ab49 d2be 811c e8bd 7764 21bf
000000d0: b3cd 1bbf 733f 7ebf 1c9c ca3c 5007 86bf
000000e0: c47e 42bf 7dae d03d a471 803e 2796 e93d
000000f0: 5128 15be e3b9 8d3e 7c5a 6abd 5a58 a7bf
00000100: 5196 ce3e b5af 17be 9920 8dbd bfde 2d3f
00000110: 80d1 573e 01c5 25be 4bb3 7fbf 583e 4fbf
00000120: 2c9a 3f3e 4dbb 90bf 59d5 b63d 3e90 8d3d
00000130: 8c73 b03d 1e5f 32be 78b3 71be 90be 97ba
00000140: 23a3 573e 5832 fabe 3b96 2fba 780a 8cbe
00000150: 1a2e 1d3e 174f 193d 5047 403e e9c1 c63e
00000160: 564a dd3e 75c6 103c f491 4f3f df4b 2bbe
00000170: e612 5cbf c847 89be 5243 2f3e d8d4 553f
00000180: 5940 7abe 503b 3bbe 73c2 cb3e 6344 7c3e
00000190: 1e46 b13e 0d89 33be 2b05 26bf 7c77 9a3e
000001a0: 8c39 80be bf37 22bd 458a 1e3e 45d0 ecbf
000001b0: 6720 69bf bf8f 0b3e f911 b4bf b477 97be
000001c0: 5029 3fbe e873 983e 0759 f53e 74b7 8c3f
000001d0: 7c79 a6bf aa6e c7be 13b3 3fbf 2e2c bcbe
000001e0: 88bf 543d d147 d3bc 0789 38be da75 55bf
000001f0: e94d 84be fbce 49bc 0703 c53d d1cc fdbe
00000200: 3900 133e baf5 a2bd c614 4e3e 964c d53d
00000210: b8d1 a4be 844f fbbe 5b26 803e 5a82 64be
00000220: 52bc d53c 0b46 8fbe fde4 c6bd 9bbb 66bf
00000230: abce 113e d053 b0be a98a df3d 918c 123f
00000240: 9eab b03e b60b 713e 6999 91be 1345 eebd
00000250: f019 193e adc5 3b3f 5b3f 35bf 2744 74bd
00000260: 45f7 a13e 01fc 18be 0765 983d 2b3c 373d
00000270: 8e2d 9fbd 823b 0abf 4d79 c33e eac7 13bf
00000280: 5a81 1b3f d2a6 bfbe 3186 89bf 51e6 2cbe
00000290: 9257 38be 4305 54be a127 3a3e 0bc1 eabd
000002a0: 0b0f a83c a157 8ebd 589a cabe 6402 c73d
000002b0: db07 97bd 6d24 863d e60a 71be b3f2 b43d
000002c0: 0efa 063e b237 74bd 43a9 ea3d 1af7 9ebe
000002d0: cdb7 c5bc 61f9 b33e a18d bb3e e9bf 813e
000002e0: 0e5a 86be 8a8a 9a3e cd2c 793e 6e8d 0dbe
000002f0: a1a9 02be bf83 87bf 6269 94bd 03a5 c93d
00000300: 1734 55be a919 5dbe 0e47 0f3d 9e15 b0be
00000310: 906e ad3e fba5 603f 1102 d7be 254e b1be
00000320: cf75 8c3e 4739 1b3b c231 b7bd 6b86 dabe
00000330: bd71 763d ac53 07bb 24ba 06be 3ce9 bf3e
00000340: e28f aa3c 8dbf 06bf f2f1 3b3e c38e 2e3e
00000350: b34f d33e 9a07 69be 70ca d1bd 7949 e93e
00000360: 3b05 60be 49f1 033f a760 323d 4829 a13c
00000370: b900 4f3e 8d40 13bd 2890 0c3e 1ca0 89bd
00000380: 88af e53b 9d8c d83e e64c b2be 23ec 803e
00000390: 3587 3bbe fc94 403e 8487 cc3e 5b64 433e
000003a0: d423 9f3e 70c1 043e ef92 783e edc6 bdbd
000003b0: 7ea3 c53c 6e86 67be ed4e 353e 274a e13d
000003c0: 2f9c 4bb9 fec7 1e3e 1fa1 a8be 9623 b63e
000003d0: 3320 c4bd 10d2 233f 88f7 dabe e61d 9a3e
000003e0: 6e80 37be 20e9 f33d e9cf e5bd 66df 72be
000003f0: 3f1e 003d 9e19 b7bd 1b13 e9bd 4ed1 3fbf

fc2.bias f4 [256]
0.81884384 0.45244402 0.83641386 0.79725385 -0.78350276 0.109115176 -0.34184474 -0.01359641
-0.19422519 -0.37996992 -1.1374805 -1.9463289 0.751911 -0.2860097 0.8602708 -0.24430798
-0.5135156 0.40814888 0.999035 -0.86869854 1.1690797 0.2064095 0.21790856 0.7555695
0.09867112 0.24734393 0.54869395 -0.1555153 -0.32611486 -0.19228408 -0.64581597 2.251847
0.084329024 0.6349514 0.28836685 -0.63057387 0.065632194 -1.4947203 0.5227116 -0.3966119
-0.5296854 0.1334244 -3.27624 -2.2960284 0.5181416 1.0197711 0.028056212 0.68613845
0.07451873 2.9091628 0.61345214 0.37983784 1.6198778 -1.0931536 0.8155265 0.37456983
-0.9592669 0.716676 -0.23740485 -1.3479282 0.6993407 1.108137 -0.15850823 0.030123593
-2.2258372 -0.7142047 -0.9707869 -0.025912765 -0.3792208 0.11517341 0.7238304 0.95049167
1.4986956 -0.5292182 0.5391918 0.43375146 0.8800247 0.05731081 1.5264049 -3.2381237
-0.85914654 1.3916059 0.30824697 0.07828678 -0.5890851 -0.73933583 -0.47869658 0.59468853
-0.3358723 1.053375 1.6593673 0.636437 1.5906022 -0.7667816 0.29607186 -0.00394978
-1.3195418 -1.7209476 0.77750784 -0.07458567 0.7671761 0.7704244 -0.58713454 1.223672
1.8470932 -2.2248845 0.6880144 0.3832656 0.71765226 0.41580474 -3.4305384 -0.60975593
0.8295048 1.3226414 -1.0018628 0.6976181 -0.7268302 -3.3067963 0.8843529 -0.27473712
-0.13757898 0.9783514 0.7990282 -0.3849012 0.48896536 1.5142722 0.5741731 -0.120062225
0.4649985 0.25495675 0.09314811 -0.29083914 0.79606885 -0.1357395 0.8007531 1.2165661
-0.35617653 0.97585577 -0.6737758 -0.2522966 1.0627674 1.1669323 1.1348188 0.7147003
0.5572669 -0.93569833 1.0521538 0.71362674 1.6223401 -0.23207174 1.5954163 1.6177576
0.7466072 -0.42987904 -0.6348787 0.48789465 -0.93406814 0.99916744 0.062247247 0.67316836
-0.14000295 0.23631085 0.24426985 1.087721 -0.8924766 -0.04404635 -3.2896767 -0.36092976
-1.3832674 0.69809055 -0.08263609 1.2134631 0.6270993 0.82070184 0.9791394 -0.3388656
-0.08032406 1.0270512 0.8495817 0.66699195 -0.20825137 -0.16319954 -0.2642437 0.4899479
0.95822054 1.0256083 -0.5059145 0.1740545 0.7373178 -3.3410714 0.5469377 0.19337024
-0.66754246 0.70466435 -0.36416203 0.7753391 -0.10994485 -0.8858915 -0.571395 -0.6297653
-3.3979573 0.5045032 -0.729068 0.7440021 -0.14673695 0.7137268 0.68226093 0.9157115
0.6520865 0.82754326 1.7191839 -2.0376441 0.59066844 0.7524706 -3.3815398 -2.5315728
1.0208505 0.9403131 0.5211813 1.0090342 -0.65797305 0.40544108 0.79026335 0.5932718
0.33305788 1.0779123 -0.037250742 -0.6326455 1.6312575 -3.3347964 3.1136334 1.1543903
-0.06718854 0.2816529 1.3220379 -0.9953345 -0.7790073 -0.34953147 1.0457091 2.3158665
0.9942459 1.982897 -1.1642454 -3.337407 -1.4598738 0.5435453 1.62772 1.0222926
1.0342594 -0.46403718 -1.3839327 0.19996981 0.43646732 -0.60924685 1.3813236 0.2953127
00000000: c09f 513f bea6 e73e 381f 563f d418 4c3f
00000010: a393 48bf c777 df3d 4606 afbe 7ac3 5ebc
00000020: f8e2 46be 6b8b c2be f698 91bf 4e21 f9bf
00000030: 3d7d 403f dd6f 92be b53a 5c3f df2b 7abe
00000040: c275 03bf e4f8 d03e c2c0 7f3f 0763 5ebf
00000050: 67a4 953f 035d 533e 6c23 5f3e 016d 413f
00000060: 1614 ca3d ba47 7d3e 3577 0c3f 673f 1fbe
00000070: 87f8 a6be 1ee6 44be 3254 25bf 431e 1040
00000080: b2b4 ac3d 2d8c 223f d2a4 933e 4a6d 21bf
00000090: 2c6a 863d ff52 bfbf 6dd0 053f b710 cbbe
000000a0: 7699 07bf 68a0 083e ebad 51c0 21f2 12c0
000000b0: eea4 043f dc87 823f 24d6 e53c c5a6 2f3f
000000c0: 479d 983d b92f 3a40 330b 1d3f 1b7a c23e
000000d0: 2858 cf3f 75ec 8bbf 58c6 503f 9ec7 bf3e
000000e0: 8492 75bf 1478 373f 421a 73be e988 acbf
000000f0: fe07 333f 6fd7 8d3f fb4f 22be c1c5 f63c
00000100: 1e74 0ec0 1fd6 36bf 7e85 78bf 0247 d4bc
00000110: 3b29 c2be 09e0 eb3d f34c 393f 6c53 733f
00000120: 42d5 bf3f d87a 07bf 7908 0a3f ac14 de3e
00000130: 4c49 613f bdbe 6a3d 3c61 c33f 6b3d 4fc0
00000140: 07f1 5bbf 2420 b23f 8cd2 9d3e d254 a03d
00000150: 48ce 16bf 1d45 3dbf b817 f5be 823d 183f
00000160: 74f7 abbe fed4 863f 2666 d43f 89ed 223f
00000170: da98 cb3f cd4b 44bf bb96 973e 286d 81bb
00000180: bfe6 a8bf 0348 dcbf c10a 473f 5fc0 98bd
00000190: a765 443f 893a 453f 734e 16bf 49a1 9c3f
000001a0: 8d6d ec3f 8264 0ec0 b621 303f 643b c43e
000001b0: 0fb8 373f 5ce4 d43e f18d 5bc0 f718 1cbf
000001c0: 6d5a 543f 504c a93f 0a3d 80bf 1a97 323f
000001d0: 8b11 3abf 8da2 53c0 f464 623f 58aa 8cbe
000001e0: 81e1 0cbe 3d75 7a3f 1d8d 4c3f c511 c5be
000001f0: ab59 fa3e acd3 c13f 02fd 123f 2fe3 f5bd
00000200: 4914 ee3e b189 823e 70c4 be3d dee8 94be
00000210: 2bcb 4b3f 4cff 0abe 28fe 4c3f 70b8 9b3f
00000220: c55c b6be afd1 793f 927c 2cbf 052d 81be
00000230: c308 883f 0a5e 953f be41 913f 99f6 363f
00000240: 0ba9 0e3f ed89 6fbf faac 863f 3eb0 363f
00000250: d7a8 cf3f 37a4 6dbe 9a36 cc3f ae12 cf3f
00000260: a621 3f3f 1b19 dcbe 6987 22bf 54cd f93e
00000270: 171f 6fbf 70c9 7f3f f8f6 7e3d c354 2c3f
00000280: ef5c 0fbe 79fb 713e e021 7a3e 713a 8b3f
00000290: 5979 64bf f269 34bd 108a 52c0 c9cb b8be
000002a0: e80e b1bf 10b6 323f 1c3d a9bd c252 9b3f
000002b0: 9489 203f 8419 523f e1a8 7a3f cb7f adbe
000002c0: f180 a4bd 6a76 833f 307e 593f fcbf 2a3f
000002d0: d93f 55be c81d 27be f34a 87be 73da fa3e
000002e0: f14d 753f 2247 833f 9d83 01bf 583b 323e
000002f0: dcc0 3c3f 1dd4 55c0 1c04 0c3f d902 463e
00000300: 10e4 2abf e264 343f 7273 babe a07c 463f
00000310: c42a e1bd c9c9 62bf f146 12bf 4c38 21bf
00000320: 2278 59c0 1f27 013f 33a4 3abf ec76 3e3f
00000330: 3642 16be cdb6 363f a7a8 2e3f 126c 6a3f
00000340: 24ef 263f e0d9 533f 380e dc3f c368 02c0
00000350: 0c36 173f eaa1 403f 266b 58c0 4a05 22c0
00000360: 3bab 823f 5cb8 703f 236c 053f 0828 813f
00000370: ec70 28bf f995 cf3e b34e 4a3f a9e0 173f
00000380: 9086 aa3e 08f9 893f 3c94 18bd 0ef5 21bf
00000390: 0ccd d03f 4e6d 55c0 c545 4740 10c3 933f
000003a0: 259a 89bd cf34 903e 8a38 a93f 3ece 7ebf
000003b0: 066d 47bf caf5 b2be ccd9 853f 2837 1440
000003c0: e686 7e3f 92cf fd3f fe05 95bf 1498 55c0
000003d0: 25dd babf c925 0b3f 2159 d03f 7cda 823f
000003e0: 9d62 843f 4896 edbe b524 b1bf e3c4 4c3e
000003f0: a578 df3e 9af7 1bbf 36cf b03f 3a33 973e

fc3.weight f4 [1, 256]
0.049217314 0.022298537 0.018570831 0.16239877 -0.06138958 0.24000342 -0.039833784 -0.037009884
-0.05253268 -0.111445434 -0.055515815 -0.26354963 0.03465857 -0.056455605 0.26535112 -0.07026957
-0.0625425 0.032166515 0.04553499 -0.20293528 0.07911116 0.056804497 0.18485445 0.04887812
0.05384007 -0.100065984 0.030659314 -0.06406323 -0.09791601 -0.024854232 -0.1336471 0.041525908
0.04617648 0.18818027 -0.10099742 -0.08797187 -0.12597133 -0.043122567 -0.026748613 -0.11423285
-0.08527859 0.035032015 -0.33865708 -0.21757719 0.04326727 0.03175623 -0.02613602 0.3143551
-0.089111686 0.18805787 0.12845296 -0.04057722 0.044148218 -0.053350262 0.019398952 0.05852245
-0.05771092 0.20806329 -0.13332464 -0.032341715 0.060553126 0.022525676 -0.045701463 0.07232824
-0.16388313 -0.054883946 -0.069283925 0.04787228 -0.024288446 -0.07311713 0.05665902 0.03394446
0.047350246 -0.0561034 0.21436052 0.25085297 0.029116921 -0.10593519 0.05792636 -0.3941808
-0.034795757 0.078503914 0.039541185 0.13601163 -0.073234424 -0.048796292 -0.16066244 0.18948841
-0.054418556 0.050931122 0.10444978 0.03027086 0.037425462 -0.07373958 -0.043860756 -0.044753026
-0.049348373 -0.050504602 0.15842947 -0.0639169 0.13821174 0.06548287 -0.2556711 0.031558905
0.11243726 -0.04007028 0.039867733 0.22804856 0.10562401 0.08145687 -0.41808793 -0.027914668
0.1944088 0.029828757 -0.20578888 0.29054698 -0.038575545 -0.3382256 0.0481681 0.052339777
-0.06562868 0.040236145 0.072052136 -0.053032022 0.31436712 0.053560384 0.111698195 -0.07347984
0.09168866 0.18915154 0.036400426 -0.083636135 0.12882388 -0.051376432 0.04674623 0.06889355
-0.2274492 0.036389153 -0.23312174 -0.041487437 0.043478265 0.029297782 0.047968823 0.039956138
0.065016374 -0.02356898 0.052446935 0.14442909 0.026987098 -0.1453152 0.13892643 0.04577771
0.02230304 -0.058544844 -0.12194302 0.024146866 -0.25227034 0.18821055 -0.048479363 0.037615955
-0.07916306 0.049584325 -0.03195625 0.060129624 -0.04438354 -0.10695521 -0.31692085 -0.04808679
-0.14368267 0.15257476 -0.07687091 0.0130448565 0.081874385 0.022268813 0.42901078 -0.034010615
-0.118786454 0.086235285 0.02333311 0.047037523 -0.054829545 -0.09754233 -0.06707843 0.023367876
0.042932317 0.16191101 -0.058133688 0.030083325 0.021997467 -0.35399243 0.120232575 -0.055351328
-0.03844216 0.04995086 -0.23514488 0.06252266 -0.128559 -0.09715241 -0.13956901 -0.047469515
-0.42698967 0.109782726 -0.06908708 0.023955187 -0.14292157 0.12995088 0.023713624 0.033343967
0.02949236 0.18131433 0.049723353 -0.030324247 0.12016985 0.027960097 -0.38329524 -0.027147992
0.06929853 0.07607641 0.047912892 0.02480355 -0.12769656 0.050990928 0.04067162 0.058667544
0.17808269 0.23431851 -0.06431506 -0.06151242 0.0855479 -0.3559643 0.25140676 0.045844514
-0.15568836 0.0616315 0.08376508 -0.035612687 -0.1636226 -0.07324213 0.102269344 0.053082965
0.02929506 0.06051219 -0.040209834 -0.38405764 -0.13495891 0.14461482 0.051239513 0.030313851
0.10679506 -0.13792099 -0.11732538 -0.05914342 0.107527584 -0.0323436 0.055620052 -0.032741357
00000000: 1898 493d 6cab b63c db21 983c dd4b 263e
00000010: a473 7bbd 75c3 753e c028 23bd ad97 17bd
00000020: 822c 57bd 813d e4bd 8d64 63bd faef 86be
00000030: 25f6 0d3d fe3d 67bd 1adc 873e 7ee9 8fbd
00000040: 4816 80bd 09c1 033d e682 3a3d 44ce 4fbe
00000050: 0805 a23d d5ab 683d 7c4a 3d3e 6c34 483d
00000060: 6887 5c3d 65ef ccbd 3e29 fb3c 9533 83bd
00000070: 3088 c8bd 1a9b cbbc c9da 08be 1217 2a3d
00000080: 8c23 3d3d 54b2 403e bcd7 cebd 992a b4bd
00000090: a1fe 00be 4aa1 30bd e81f dbbc eaf2 e9bd
000000a0: 8ba6 aebd bb7d 0f3d 7664 adbe 8ecc 5ebe
000000b0: 0539 313d d212 023d 351b d6bc 27f3 a03e
000000c0: 3080 b6bd 3e92 403e 2c89 033e 4d34 26bd
000000d0: c3d4 343d ce85 5abd 8dea 9e3c 3db5 6f3d
000000e0: 4962 6cbd 8b0e 553e 4186 08be bf78 04bd
000000f0: 8e06 783d c487 b83c 7531 3bbd d420 943d
00000100: fbd0 27be fdcd 60bd bbe4 8dbd b915 443d
00000110: 90f8 c6bc 6fbe 95bd 4a13 683d 5909 0b3d
00000120: 55f2 413d aecc 65bd 5381 5b3e cd6f 803e
00000130: 9c86 ee3c 8df4 d8bd 3144 6d3d 11d2 c9be
00000140: ff85 0ebd a9c6 a03d f0f5 213d a246 0b3e
00000150: eefb 95bd 9fde 47bd b284 24be 4009 423e
00000160: fee5 5ebd 279d 503d c4e9 d53d 98fa f73c
00000170: 714b 193d c704 97bd 56a7 33bd f34e 37bd
00000180: 8521 4abd eadd 4ebd 563b 223e dde6 82bd
00000190: 6187 0d3e e21b 863d 53e7 82be e943 013d
000001a0: 8245 e63d bc20 24bd 594c 233d 9085 693e
000001b0: 6751 d83d dcd2 a63d 9f0f d6be 4dad e4bc
000001c0: 1a13 473e 705b f43c 52ba 52be 93c2 943e
000001d0: 6401 1ebd e82b adbe ea4b 453d 3c62 563d
000001e0: 5468 86bd a8ce 243d 1290 933d 1b38 59bd
000001f0: baf4 a03e 2262 5b3d 06c2 e43d 997c 96bd
00000200: 44c7 bb3d f1b0 413e 9d18 153d 6c49 abbd
00000210: 68ea 033e 1870 52bd fa78 3f3d 1018 8d3d
00000220: 71e8 68be cb0c 153d 77b7 6ebe bbee 29bd
00000230: 4416 323d e701 f03c f57a 443d 0ca9 233d
00000240: 4e27 853d bc13 c1bc 99d2 563d 38e5 133e
00000250: 0c14 dd3c 82cd 14be bb42 0e3e 6881 3b3d
00000260: ddb4 b63c b8cc 6fbd 43bd f9bd a6cf c53c
00000270: 9429 81be 44ba 403e 4c92 46bd 3013 1a3d
00000280: 3e20 a2bd ef18 4b3d 8fe4 02bd 7b4a 763d
00000290: 84cb 35bd 550b dbbd 7343 a2be a7f6 44bd
000002a0: 8d21 13be 8f3c 1c3e 7f6e 9dbd 18ba 553c
000002b0: c2ad a73d 166d b63c 4da7 db3e b74e 0bbd
000002c0: 5046 f3bd 209c b03d 1425 bf3c 6baa 403d
000002d0: f294 60bd 46c4 c7bd 6a60 89bd fd6d bf3c
000002e0: ccd9 2f3d 00cc 253e 971d 6ebd 4e71 f63c
000002f0: 0834 b43c 7f3e b5be 7f3c f63d 13b8 62bd
00000300: 8775 1dbd 4699 4c3d d2c9 70be e10b 803d
00000310: f8a4 03be d8f7 c6bd 2eeb 0ebe 656f 42bd
00000320: 649e dabe c4d5 e03d 877d 8dbd ab3d c43c
00000330: 085a 12be d811 053e 1343 c23c af93 083d
00000340: f699 f13c 77aa 393e b7aa 4b3d 8e6a f8bc
00000350: 9c1b f63d 930c e53c 463f c4be 7765 debc
00000360: 63ec 8d3d f3cd 9b3d 4f40 443d d130 cb3c
00000370: e3c2 02be dddb 503d 4997 263d 614d 703d
00000380: 4f5b 363e 31f1 6f3e 9db7 83bd 73f4 7bbd
00000390: bd33 af3d f440 b6be 63b8 803e 75c7 3b3d
000003a0: c56c 1fbe 5071 7c3d 078d ab3d 9cde 11bd
000003b0: af8c 27be f8ff 95bd 9772 d13d 866d 593d
000003c0: 32fc ef3c a1db 773d 11b3 24bd 34a3 c4be
000003d0: ab32 0abe e815 143e 86e0 513d c154 f83c
000003e0: 5eb7 da3d 293b 0dbe 4a48 f0bd 5f40 72bd
000003f0: 6c37 dc3d b97a 04bd dad1 633d cd1b 06bd
